data.pth (torch, 5015 bytes, 6 tensors)

l1.weight f4 [8, 54]
000000 bc 83 28 3f 84 8e 21 3f 65 cb d0 be 7e db cc be
       0.6582601 0.63108087 -0.40780178 -0.4001121
000010 ac 18 35 be 4b 02 6f 3d 36 6e 2a 3d 25 fc 96 bc
       -0.17685193 0.058351796 0.04160901 -0.018430779
000020 57 a5 0b bc 53 09 5f be 1e 52 a1 be 4d de a3 be
       -0.008523307 -0.217809 -0.31507963 -0.3200554
000030 6d 6e 0c 3f 75 8e 40 bd e0 95 ee 3e 9f 63 4c be
       0.54855996 -0.047010858 0.4659872 -0.19959877
000040 91 e2 b6 be 66 2b a0 3e ad e3 04 3f e3 07 2c bf
       -0.3571973 0.3128311 0.51909906 -0.67199534
000050 55 7e 01 3f 0b 08 2c bf f4 1b 2c bf 94 03 1c bf
       0.5058339 -0.6719977 -0.67230153 -0.6094296
000060 e1 f2 27 be 14 dc e4 be de 5e 18 3f 10 d2 02 3f
       -0.16401245 -0.44699156 0.59519756 0.5110178
000070 9e ec ce 3e 12 5e 25 3f 4c f6 f1 3d 04 09 8a bd
       0.404149 0.64596665 0.118145555 -0.06740001
000080 93 e2 88 3e 7e 4b a3 be 6a ac f2 3e c6 b5 1c be
       0.26735362 -0.31893533 0.47397166 -0.15303716
000090 3f 3f c8 3e ab 0a d1 bd f1 cb 0f 3e b9 cf 0a 3e
       0.39110753 -0.10207113 0.14042641 0.13555802
0000a0 3d 49 19 3e 66 a3 0d 3f f3 49 9f bd a0 df ee 3e
       0.14969344 0.5532745 -0.077777766 0.46654987
0000b0 ff ee 4c bd 26 21 fc 3e 0b af a6 3f 8d e3 1b 3f
       -0.050032612 0.4924404 1.3022169 0.6089409
0000c0 33 42 ba 3e 86 3a 3f 3f 19 73 c4 be f7 45 10 3f
       0.3637863 0.74698675 -0.38369063 0.5635676
0000d0 41 cc cd 3d 86 b3 11 3f 93 18 08 be a0 75 e4 3e
       0.10048724 0.56914556 -0.13290624 0.4462099
0000e0 03 b5 b1 3e 71 7c b4 bd 2c c6 18 3d 17 e8 13 3f
       0.34708413 -0.08812798 0.037298366 0.57776016
0000f0 33 6b e4 3e d0 bf 5b 3e 14 cf 27 3f 81 0b c0 3e
       0.44613037 0.2145989 0.6555035 0.37508777
000100 7f 1b 5a bd 45 00 57 3e f0 70 cc 3e 38 13 8e 3e
       -0.05324888 0.20996197 0.39929914 0.27749038
000110 92 27 e0 3e 68 57 36 be ea 1e eb bd a3 53 00 3f
       0.4378019 -0.1780678 -0.11480506 0.5012762
000120 39 ab 18 be c9 46 8d be 5f e1 c2 bd 34 fa 94 be
       -0.14909066 -0.27593067 -0.095156424 -0.2909714
000130 b5 02 8b be 02 dd fc be 8f 73 29 be d3 d0 2b be
       -0.27150503 -0.49387366 -0.16547988 -0.16778879
000140 90 19 9d be ea 7c 0a 3f 03 53 aa bd cd 25 df 3e
       -0.30683565 0.54096854 -0.083166145 0.43583527
000150 d5 3a 1e 3f 69 71 08 3e dc 9d 1e bd 98 4e ed 3e
       0.6180852 0.13324513 -0.038724765 0.46349025
000160 d9 44 07 3f 73 32 12 bd 40 c4 aa 3c 3e 0b 0d 3f
       0.5283943 -0.035692643 0.020845532 0.5509528
000170 bd 38 8d 3e 17 d2 aa 3e e1 81 1f 3f 6b 47 a1 be
       0.2758235 0.3336341 0.62307554 -0.314998
000180 53 a8 75 3e 26 19 b9 3e f7 50 b7 3e c8 e2 bf 3e
       0.23989992 0.36152 0.3580396 0.37477708
000190 5b 37 37 bf 2f bb 3d be 92 7e 2c be 1c 0e 07 bf
       -0.7156884 -0.18528436 -0.16845158 -0.52755904
0001a0 05 b4 53 be 5c f5 af be 12 fa 87 3e 9e b7 9f 3e
       -0.20674141 -0.34366882 0.26557976 0.31194776
0001b0 ae 63 97 be 5e 35 e4 be 6c 95 aa 3e 73 ce c9 3e
       -0.29568237 -0.44571966 0.33317125 0.3941532
0001c0 1d b4 07 3e a1 41 3f 3f 50 2e e0 3e 7e ca 8d 3e
       0.13252302 0.74709517 0.43785334 0.27693552
0001d0 38 83 10 3f ee cf b2 3e 7f ad 1b 3f 5d 02 23 3f
       0.56450224 0.34924263 0.6081161 0.6367548
0001e0 cb 1f 6e 3e 57 96 24 3f ac 30 3b be bd 37 cc 3e
       0.23254316 0.642919 -0.18280286 0.39886275
0001f0 4a 56 d4 3e fb 1a 59 3f 0d cd da be 28 89 18 3f
       0.41472083 0.84806794 -0.42734566 0.59584284
000200 cf 8c 3b be 89 72 f1 3e c0 a1 e0 3e e9 38 06 3f
       -0.18315433 0.47157696 0.43873405 0.5243059
000210 d9 6b c7 3e f3 c9 00 3f 28 df d0 be 76 9a d9 be
       0.3894947 0.5030815 -0.40795255 -0.42500657
000220 65 ae d5 bd 0a 61 bc be 32 90 0d 3f cc a2 3d 3f
       -0.10433654 -0.36792785 0.5529815 0.74076533
000230 3c a9 ec 3d 5a 32 9a 3e b1 8c 21 be c3 9c ea 3e
       0.115557164 0.3011654 -0.15776326 0.45822725
000240 c6 8c 7e be 22 bf 12 3f 88 6e db 3e 12 77 99 3e
       -0.24858388 0.57322896 0.42857766 0.29973656
000250 e7 4b 35 3f 75 19 fb be 56 6e fc 3e 04 bb cb be
       0.7081894 -0.4904286 0.4930293 -0.3979112
000260 f3 bd 33 3f 55 d9 1e be 5b 13 54 bf a1 29 7d be
       0.70211715 -0.15512593 -0.82842034 -0.24722911
000270 49 e2 d0 3e c3 a2 0d bf 27 81 bd 3e 0d 72 a7 be
       0.40797642 -0.5532648 0.37012598 -0.327042
000280 ec 2f a5 3e 16 ed e6 3d 81 dc 1b bd a7 39 71 be
       0.32263124 0.11275689 -0.038052086 -0.23557149
000290 eb 5e d0 3e 9e ee 74 be 6f 44 95 3d c1 53 eb 3e
       0.40697417 -0.2391915 0.07288443 0.45962337
0002a0 ac 1d 03 3f de cd 13 3f 96 5c 1c 3f b6 a9 bc 3e
       0.5121715 0.57736003 0.61078775 0.3684823
0002b0 46 b3 5d be eb 6b 16 3f da ef 14 3f c8 17 1c 3f
       -0.21650419 0.5875842 0.58178484 0.6097379
0002c0 0f a9 f9 bd f9 d0 2b 3e 98 29 c4 bd bb b6 66 3e
       -0.121904485 0.16778935 -0.09578246 0.22530644
0002d0 0b 81 af 3e 17 b2 9e be 6b 51 52 be 42 e4 9f be
       0.3427814 -0.30995247 -0.20538871 -0.31228834
0002e0 65 d8 9f be cf 0e df be 04 f2 30 3f 7a 12 85 be
       -0.31219783 -0.43565986 0.69119287 -0.2599066
0002f0 42 38 99 3e d8 0f 8f be 44 f5 4c 3e cb 12 7b be
       0.29925734 -0.27941775 0.20015436 -0.24518888
000300 60 df 87 3e de b4 02 3f 3e 30 17 3d 73 65 f7 3e
       0.2653761 0.5105723 0.03691124 0.48319587
000310 2b 43 39 3d 26 61 96 3e fd 3e a5 3e fb d7 16 3f
       0.045230072 0.29370993 0.3227462 0.5892331
000320 3c b0 c8 3e 6c 52 06 3f 1a bd 58 3e bd 77 66 3e
       0.39196956 0.52469516 0.21165887 0.22506614
000330 bb ef 9d 3e 4c 3e 00 be 14 29 32 3f 83 28 e2 bd
       0.30846962 -0.12523764 0.6959393 -0.11042883
000340 9b c2 0e bf 65 ee 8c bd 44 cc 3f 3e bb bd eb 3e
       -0.55765694 -0.06881408 0.18730265 0.4604319
000350 6e 11 76 3e 66 0e e8 3d 0b 9d 1b 3f 2d 25 b4 3e
       0.24030086 0.11330871 0.60786504 0.35184613
000360 9d 2c da 3e d9 57 1c 3f b9 41 07 3e e2 f8 99 bd
       0.42612162 0.61071545 0.13208665 -0.07518174
000370 a4 d4 ff be da 2a 65 3f 0a ab 49 3e f4 be 54 3e
       -0.4996692 0.8951851 0.19694152 0.20775968
000380 74 1b 3b 3d 05 3c 66 3d fa da eb bd ea 32 81 3e
       0.04568048 0.056209583 -0.11516376 0.25234157
000390 b4 16 2e 3d 91 c2 93 3d ff 7e c3 3e 6d 3d e9 3d
       0.04250212 0.07214845 0.38182828 0.11388669
0003a0 c9 cc 8d be 7f 27 3e 3f ca be 8f be 09 7e fe be
       -0.276953 0.74279016 -0.28075248 -0.49705532
0003b0 e5 89 fe 3e 2d c3 01 bf 58 85 08 bf 55 93 90 be
       0.4971458 -0.5068844 -0.53328466 -0.28237405
0003c0 04 a6 4a 3d 76 53 8c be 61 51 75 be c7 26 28 3f
       0.04947473 -0.27407426 -0.23956825 0.6568417
0003d0 ae c4 97 3d a4 f4 d9 3e 2f 9d 23 3f 98 a8 d2 3d
       0.074105605 0.42569458 0.6391172 0.10286063
0003e0 8d 8f d7 3e 7f d3 32 bd c0 51 bf 3e 11 92 b8 3d
       0.42101708 -0.04365873 0.37367058 0.09012235
0003f0 fd 6d f6 bd 77 6f b9 3c a9 61 33 3e 05 9e 65 3e
       -0.12032697 0.022636158 0.17517723 0.22423561

l1.bias f4 [8]
000000 c4 0e 2c 3f da ad d3 3e 1c 9e 64 3f 9b e5 9f 3e
       0.6721003 0.41343576 0.89303756 0.31229863
000010 6d 42 33 3f 2d 93 34 3f 17 cc 0c 3f 20 b2 4a 3f
       0.7002323 0.7053707 0.54998916 0.7917805

l2.weight f4 [8, 8]
000000 8f 63 ac 3e 0f bb 02 3f b4 9a 00 bf 45 90 89 bf
       0.33669707 0.5106668 -0.5023606 -1.0747153
000010 b0 c8 79 3f 03 09 b4 3f a5 c7 b4 3f 21 16 63 3f
       0.9757185 1.406525 1.4123427 0.8870564
000020 77 b0 bd 3f b8 43 a1 3d 73 c6 9f bf 53 01 88 be
       1.4819478 0.078742445 -1.2482437 -0.2656351
000030 34 89 3b 3f 4a 1a 98 3f 8a ba cf bd 1a cb 80 3f
       0.7325623 1.1883023 -0.101430014 1.0061982
000040 40 c5 04 bf bd 4a b7 3f ed 67 a1 3f ca b0 7a 3f
       -0.5186348 1.4319683 1.2609841 0.9792601
000050 ba 56 55 3f a3 27 d9 be 72 ee b5 3f d1 52 32 3c
       0.8333546 -0.42413053 1.4213393 0.010884003
000060 b5 41 cf be 31 fa bf be 7f d4 9e 3f 0a 79 87 be
       -0.40479818 -0.37495568 1.2408599 -0.26459533
000070 db 70 21 be 2e 63 db 3e 65 05 48 bf cd 91 be 3f
       -0.15765707 0.42849106 -0.7813323 1.4888245
000080 67 2f bb 3e e3 1b 96 be 6a 91 e4 3e d2 5d 7b bf
       0.36559603 -0.2931815 0.44642192 -0.98190033
000090 e2 4a a6 3f 4f ef 3b 3f b4 dd 9b be 16 8a 9a 3f
       1.2991602 0.7341203 -0.30442584 1.207339
0000a0 10 45 cc bd de 58 68 3e 00 2e 53 3a d2 4f a8 be
       -0.0997411 0.2269015 0.0008055866 -0.32873398
0000b0 cc 33 d3 bd cc 3f 81 be 98 09 c9 bd a8 dc 01 3e
       -0.10312614 -0.25243986 -0.09816283 0.1268183
0000c0 5f 80 6a be 66 c5 73 be a3 03 99 3e a0 8e 15 bc
       -0.22900532 -0.2380577 0.29885587 -0.009128243
0000d0 e3 bb a0 be a0 bd c3 3c 18 ed 17 3d 85 6d 90 be
       -0.31393346 0.023894131 0.037091345 -0.28208557
0000e0 b1 a3 d1 3f 62 97 68 3f 18 a5 b7 3e 05 b0 42 3f
       1.637808 0.9085599 0.35868144 0.76049834
0000f0 5a de 8a 3f 3b c8 b3 be 35 e7 a6 3e d1 e5 2a bf
       1.0849106 -0.351137 0.32598272 -0.6675692

l2.bias f4 [8]
000000 44 b0 a7 3e 19 c4 06 3f b1 d3 6c 3e b5 03 4e 3f
       0.32751667 0.5264297 0.23127629 0.80474406
000010 4c 1f b2 3e e5 22 a0 be 48 1b ad be 6b d3 f9 3e
       0.34789503 -0.31276622 -0.33809876 0.48794112

l3.weight f4 [7, 8]
000000 6c 0a a3 bf 3f cc 15 bf 69 27 bb 3e 35 40 20 3f
       -1.2737556 -0.5851478 0.36553505 0.6259797
000010 a2 35 2f bd 3a a0 20 3e 26 6a 06 3e 77 c8 10 bf
       -0.042775758 0.15686122 0.1312643 -0.56555885
000020 83 dc 46 3f e3 42 13 3f 7c 27 f1 be b8 fb bd bf
       0.77680224 0.57523936 -0.47100437 -1.4842443
000030 65 09 05 be 53 1f 8e 3e 00 34 7e ba 2b fc e8 be
       -0.12991865 0.27758273 -0.00096970797 -0.4550489
000040 e7 b9 5d 3e c3 68 96 be e5 af 8a 3e 1e b1 26 bf
       0.21652947 -0.29376802 0.27087322 -0.6511401
000050 c8 b9 a6 bc 9a 65 0b 3e e8 44 59 be 4d b0 4d 3d
       -0.02035226 0.13612977 -0.21217692 0.05021696
000060 96 cc ff 3e 8b 25 3f 3e f8 82 33 bf 7e 45 83 3f
       0.49960774 0.18666665 -0.7012172 1.0255582
000070 9b 89 d4 3d 92 02 2f be 0c 2b 8f be 27 f7 bb bf
       0.10377809 -0.17090824 -0.2796253 -1.46848
000080 5d a9 94 bf c8 dd 35 3f e0 81 fd be 4d 32 17 bf
       -1.1614186 0.71041536 -0.4951315 -0.5906113
000090 5f 90 3c bf 33 eb 7f be 6e e0 1b 3e e7 41 04 3f
       -0.7365779 -0.24992065 0.15222332 0.5166306
0000a0 71 37 c6 bf 7f 98 9c bf a0 ef 2b 3f 17 ea 19 bf
       -1.5485669 -1.2234038 0.67162514 -0.6012282
0000b0 cf 34 84 bf b8 47 4a 3d e8 6c 09 bd 07 6a 0a 3f
       -1.0328616 0.049384803 -0.033551127 0.54068035
0000c0 db ad 0f 3f a4 8d 33 3f 6c e8 f6 bf 37 54 2b be
       0.5612466 0.70138 -1.928968 -0.16731344
0000d0 37 a2 bb 3e 90 96 2a 3d 40 fa ec bc cc 7e a8 be
       0.36647198 0.041647494 -0.028927922 -0.32909238

l3.bias f4 [7]
000000 f7 be 9d be 43 46 05 bf 94 4c 62 3e 9d aa b7 3e
       -0.30809757 -0.52060336 0.22099525 0.35872355
000010 66 6e 1d 3f 91 77 1f 3e 17 95 ee be
       0.6149658 0.15572955 -0.46598122
